…
        "outputId": "913dd19e-b415-4804-bf6a-765386c57318"
      },
      "source": [
        "# < YOUR CODE HERE >\n",
        "model.summary()"
      ],
      "execution_count": 15,
      "outputs": [
        {
          "output_type": "stream",
          "name": "stdout",
          "text": [
            "Model: \"sequential\"\n",
            "_________________________________________________________________\n",
            " Layer (type)                Output Shape              Param #   \n",
            "=================================================================\n",
            " conv2d (Conv2D)             (None, 98, 98, 32)        896       \n",
            "                                                                 \n",
            " max_pooling2d (MaxPooling2  (None, 49, 49, 32)        0         \n",
            " D)                                                              \n",
            "                                                                 \n",
            " conv2d_1 (Conv2D)           (None, 47, 47, 64)        18496     \n",
            "                                                                 \n",
            " max_pooling2d_1 (MaxPoolin  (None, 23, 23, 64)        0         \n",
            " g2D)                                                            \n",
            "                                                                 \n",
            " conv2d_2 (Conv2D)           (None, 21, 21, 128)       73856     \n",
            "                                                                 \n",
            " max_pooling2d_2 (MaxPoolin  (None, 10, 10, 128)       0         \n",
            " g2D)                                                            \n",
            "                                                                 \n",
            " conv2d_3 (Conv2D)           (None, 8, 8, 256)         295168    \n",
            "                                                                 \n",
            " max_pooling2d_3 (MaxPoolin  (None, 4, 4, 256)         0         \n",
            " g2D)                                                            \n",
            "                                                                 \n",
            " flatten (Flatten)           (None, 4096)              0         \n",
            "                                                                 \n",
            " dense (Dense)               (None, 512)               2097664   \n",
            "                                                                 \n",
            " dense_1 (Dense)             (None, 256)               131328    \n",
            "                                                                 \n",
            " dense_2 (Dense)             (None, 1)                 257       \n",
            "                                                                 \n",
            "=================================================================\n",
            "Total params: 2617665 (9.99 MB)\n",
            "Trainable params: 2617665 (9.99 MB)\n",
            "Non-trainable params: 0 (0.00 Byte)\n",
            "_________________________________________________________________\n"
…
